…
ry convenient for a number of aspects in the library.",
            "Effectively this simply requires one extra line of code (line 10 in Snippet 3)",
            "Let\u2019s have a look to the model we just built and how it relates to Fig 1 (note that in order to keep the size of the post \u201ctractable\u201d, I will only print the architecture of the TabMlp model. If you wanted to see the architecture of the TabRensetand the TabTransformer have a look to the original post).",
            "model WideDeep( (deeptabular): Sequential( (0): TabMlp( (embed_layers): ModuleDict( (emb_layer_education): Embedding(17, 8, padding_idx=0) (emb_layer_marital_status): Embedding(8, 6, padding_idx=0) (emb_layer_occupation): Embedding(16, 8, padding_idx=0) (emb_layer_race): Embedding(6, 6, padding_idx=0) (emb_layer_relationship): Embedding(7, 6, padding_idx=0) (emb_layer_workclass): Embedding(10, 6, padding_idx=0) ) (embedding_dropout): Dropout(p=0.1, inplace=False) (norm): BatchNorm1d(4, eps=1e-05, momentum=0.1, affine=True, track_running_stats=True) (tab_mlp): MLP( (mlp): Sequential( (dense_layer_0): Sequential( (0): Dropout(p=0.1, inplace=False) (1): Linear(in_features=44, out_features=200, bias=True) (2): ReLU(inplace=True) ) (dense_layer_1): Sequential( (0): Dropout(p=0.1, inplace=False) (1): Linear(in_features=200, out_features=100, bias=True) (2): ReLU(inplace=True) ) ) ) ) (1): Linear(in_features=100, out_features=1, bias=True) ) )",
            "We can see that our model is a object of class WideDeep formed by one single component, deeptabular, which is itself a model of class TabMlp .TabMlp consists in a series of columns that will be represented as embeddings (e.g. emb_layer_education), which are concatenated to form a tensor of dim (bsz, 40) , where bsz is batch size. Then,
…
